…
"13648534936748692944"}},"outputId":"5edee0fc-e6bc-439d-eec0-1834c4756274","colab":{"base_uri":"https://localhost:8080/"}},"execution_count":null,"outputs":[{"output_type":"execute_result","data":{"text/plain":["===================================================================================================================\n","Layer (type:depth-idx)                   Output Shape              Param #                   Trainable\n","===================================================================================================================\n","VAE                                      [1, 1024]                 --                        True\n","├─Sequential: 1-1                        [1, 1024]                 --                        True\n","│    └─Conv2d: 2-1                       [1, 32, 26, 26]           320                       True\n","│    └─ReLU: 2-2                         [1, 32, 26, 26]           --                        --\n","│    └─Conv2d: 2-3                       [1, 32, 12, 12]           9,248                     True\n","│    └─ReLU: 2-4                         [1, 32, 12, 12]           --                        --\n","│    └─Conv2d: 2-5                       [1, 64, 10, 10]           18,496                    True\n","│    └─ReLU: 2-6                         [1, 64, 10, 10]           --                        --\n","│    └─Conv2d: 2-7                       [1, 64, 4, 4]             36,928                    True\n","│    └─ReLU: 2-8                         [1, 64, 4, 4]             --                        --\n","│    └─Flatten: 2-9                      [1, 1024]                 --                        --\n","├─Linear: 1-2                            [1, 10]                   10,250                    True\n","├─Linear: 1-3                            [1, 10]                   10,250                    True\n","├─Sequential: 1-4                        [1, 1, 28, 28]            --                        True\n","│    └─Linear: 2-10                      [1, 1024]                 11,264                    True\n","│    └─Unflatten: 2-11                   [1, 64, 4, 4]             --                        --\n","│    └─ConvTranspose2d: 2-12             [1, 64, 10, 10]           36,928                    True\n","│    └─ReLU: 2-13                        [1, 64, 10, 10]           --                        --\n","│    └─ConvTranspose2d: 2-14             [1, 32, 12, 12]           18,464                    True\n","│    └─ReLU: 2-15                        [1, 32, 12, 12]           --                        --\n","│    └─ConvTranspose2d: 2-16             [1, 32, 26, 26]           9,248                     True\n","│    └─ReLU: 2-17                        [1, 32, 26, 26]           --                        --\n","│    └─ConvTranspose2d: 2-18             [1, 1, 28, 28]            289                       True\n","│    └─Sigmoid: 2-19                     [1, 1, 28, 28]            --                        --\n","===================================================================================================================\n","Total params: 161,685\n","Trainable params: 161,685\n","Non-trainable params: 0\n","Total mult-adds (M): 16.85\n","===================================================================================================================\n","Input size (MB
…
